…
      "metadata": {
        "id": "fughrXnfXd4s",
        "colab": {
          "base_uri": "https://localhost:8080/"
        },
        "outputId": "c6f192c0-e83f-49f0-be9d-20417dddbfff"
      },
      "source": [
        "model.parameters"
      ],
      "execution_count": 49,
      "outputs": [
        {
          "output_type": "execute_result",
          "data": {
            "text/plain": [
              "<bound method Module.parameters of SentimentClassifier(\n",
              "  (bert): BertModel(\n",
              "    (embeddings): BertEmbeddings(\n",
              "      (word_embeddings): Embedding(30522, 768, padding_idx=0)\n",
              "      (position_embeddings): Embedding(512, 768)\n",
              "      (token_type_embeddings): Embedding(2, 768)\n",
              "      (LayerNorm): LayerNorm((768,), eps=1e-12, elementwise_affine=True)\n",
              "      (dropout): Dropout(p=0.1, inplace=False)\n",
              "    )\n",
              "    (encoder): BertEncoder(\n",
              "      (layer): ModuleList(\n",
              "        (0): BertLayer(\n",
              "          (attention): BertAttention(\n",
              "            (self): BertSelfAttention(\n",
              "              (query): Linear(in_features=768, out_features=768, bias=True)\n",
              "              (key): Linear(in_features=768, out_features=768, bias=True)\n",
              "              (value): Linear(in_features=768, out_features=768, bias=True)\n",
              "              (dropout): Dropout(p=0.1, inplace=False)\n",
              "            )\n",
              "            (output): BertSelfOutput(\n",
              "              (dense): Linear(in_features=768, out_features=768, bias=True)\n",
              "              (LayerNorm): LayerNorm((768,), eps=1e-12, elementwise_affine=True)\n",
              "              (dropout): Dropout(p=0.1, inplace=False)\n",
              "            )\n",
              "          )\n",
              "          (intermediate): BertIntermediate(\n",
              "            (dense): Linear(in_features=768, out_features=3072, bias=True)\n",
              "          )\n",
              "          (output): BertOutput(\n",
              "            (dense): Linear(in_features=3072, out_features=768, bias=True)\n",
              "            (LayerNorm): LayerNorm((768,), eps=1e-12, elementwise_affine=True)\n",
              "            (dropout): Dropout(p=0.1, inplace=False)\n",
              "          )\n",
              "        )\n",
              "        (1): BertLayer(\n",
              "          (attention): BertAttention(\n",
              "            (self): BertSelfAttention(\n",
              "              (query): Linear(in_features=768, out_features=768, bias=True)\n",
              "              (key): Linear(in_features=768, out_features=768, bias=True)\n",
              "              (value): Linear(in_features=768, out_features=768, bias=True)\n",
              "              (dropout): Dropout(p=0.1, inplace=False)\n",
              "            )\n",
              "            (output): BertSelfOutput(\n",
              "              (dense): Linear(in_features=768, out_features=768, bias=True)\n",
              "              (LayerNorm): LayerNorm((768,), eps=1e-12, elementwise_affine=True)\n",
              "              (dropout): Dropout(p=0.1, inplace=False)\n",
              "            )\n",
              "          )\n",
              "          (intermediate): BertIntermediate(\n",
              "            (dense): Linear(in_features=768, out_features=3072, bias=True)\n",
              "          )\n",
              "          (output): BertOutput(\n",
              "            (dense): Linear(in_features=3072, out_features=768, bias=True)\n",
              "            (LayerNorm): LayerNorm((768,), eps=1e-12, elementwise_affine=True)\n",
              "            (dropout): Dropout(p=0.1, inplace=False)\n",
              "          )\n",
              "        )\n",
              "        (2): BertLayer(\n",
              "          (attention): BertAttention(\n",
              "            (self): BertSelfAttention(\n",
              "              (query): Linear(in_features=768, out_features=768, bias=True)\n",
              "              (key): Linear(in_features=768, out_features=768, bias=True)\n",
              "              (value): Linear(in_features=768, out_features=768, bias=True)\n",
              "              (dropout): Dropout(p=0.1, inplace=False)\n",
              "            )\n",
              "            (output): BertSelfOutput(\n",
              "              (dense): Linear(in_features=768, out_features=768, bias=True)\n",
              "              (LayerNorm): LayerNorm((768,), eps=1e-12, elementwise_affine=True)\n",
              "              (dropout): Dropout(p=0.1, inplace=False)\n",
              "            )\n",
              "          )\n",
              "          (intermediate): BertIntermediate(\n",
              "            (dense): Linear(in_features=768, out_features=3072, bias=True)\n",
              "          )\n",
              "          (output): BertOutput(\n",
              "            (dense): Linear(in_features=3072, out_features=768, bias=True)\n",
              "            (LayerNorm): LayerNorm((768,), eps=1e-12, elementwise_affine=True)\n",
              "            (dropout): Dropout(p=0.1, inplace=False)\n",
              "          )\n",
              "        )\n",
              "        (3): BertLayer(\n",
              "          (attention): BertAttention(\n",
              "            (self): BertSelfAttention(\n",
              "              (query): Linear(in_features=768, out_features=768, bias=True)\n",
              "              (key): Linear(in_features=768, out_features=768, bias=True)\n",
              "              (value): Linear(in_features=768, out_features=768, bias=True)\n",
              "              (dropout): Dropout(p=0.1, inplace=False)\n",
              "            )\n",
              "            (output): BertSelfOutput(\n",
              "              (dense): Linear(in_features=768, out_features=768, bias=True)\n",
              "              (LayerNorm): LayerNorm((768,), eps=1e-12, elementwise_affine=True)\n",
              "              (dropout): Dropout(p=0.1, inplace=False)\n",
              "            )\n",
              "          )\n",
              "          (intermediate): BertIntermediate(\n",
              "            (dense): Linear(in_features=768, out_features=3072, bias=True)\n",
              "          )\n",
              "          (output): BertOutput(\n",
              "            (dense): Linear(in_features=3072, out_features=768, bias=True)\n",
              "            (LayerNorm): LayerNorm((768,), eps=1e-12, elementwise_affine=True)\n",
              "            (dropout): Dropout(p=0.1, inplace=False)\n",
              "          )\n",
              "        )\n",
              "        (4): BertLayer(\n",
              "          (attention): BertAttention(\n",
              "            (self): BertSelfAttention(\n",
              "              (query): Linear(in_features=768, out_features=768, bias=True)\n",
              "              (key): Linear(in_features=768, out_features=768, bias=True)\n",
              "              (value): Linear(in_features=768, out_features=768, bias=True)\n",
              "              (dropout): Dropout(p=0.1, inplace=False)\n",
              "            )\n",
              "            (output): BertSelfOutput(\n",
              "              (dense): Linear(in_features=768, out_features=768, bias=True)\n",
              "              (LayerNorm): LayerNorm((768,), eps=1e-12, elementwise_affine=True)\n",
              "              (dropout): Dropout(p=0.1, inplace=False)\n",
              "            )\n",
              "          )\n",
              "          (intermediate): BertIntermediate(\n",
              "            (dense): Linear(in_features=768, out_features=3072, bias=True)\n",
              "          )\n",
              "          (output): BertOutput(\n",
              "            (dense): Linear(in_features=3072, out_features=768, bias=True)\n",
              "            (LayerNorm): LayerNorm((768,), eps=1e-12, elementwise_affine=True)\n",
              "            (dropout): Dropout(p=0.1, inplace=False)\n",
              "          )\n",
              "        )\n",
              "        (5): BertLayer(\n",
              "          (attention): BertAttention(\n",
              "            (self): BertSelfAttention(\n",
              "              (query): Linear(in_features=768, out_features=768, bias=True)\n",
              "              (key): Linear(in_features=768, out_features=768, bias=True)\n",
              "              (value): Linear(in_features=768, out_features=768, bias=True)\n",
              "              (dropout): Dropout(p=0.1, inplace=False)\n",
              "            )\n",
              "            (output): BertSelfOutput(\n",
              "              (dense): Linear(in_features=768, out_features=768, bias=True)\n",
              "              (LayerNorm): LayerNorm((768,), eps=1e-12, elementwise_affine=True)\n",
              "              (dropout): Dropout(p=0.1, inplace=False)\n",
              "            )\n",
              "          )\n",
              "          (intermediate): BertIntermediate(\n",
              "            (dense): Linear(in_features=768, out_features=3072, bias=True)\n",
              "          )\n",
              "          (output): BertOutput(\n",
              "            (dense): Linear(in_features=3072, out_features=768, bias=True)\n",
              "            (LayerNorm): LayerNorm((768,), eps=1e-12, elementwise_affine=True)\n",
              "            (dropout): Dropout(p=0.1, inplace=False)\n",
              "          )\n",
              "        )\n",
              "        (6): BertLayer(\n",
              "          (attention): BertAttention(\n",
              "            (self): BertSelfAttention(\n",
              "              (query): Linear(in_features=768, out_features=768, bias=True)\n",
              "              (key): Linear(in_features=768, out_features=768, bias=True)\n",
              "              (value): Linear(in_features=768, out_features=768, bias=True)\n",
              "              (dropout): Dropout(p=0.1, inplace=False)\n",
              "            )\n",
              "            (output): BertSelfOutput(\n",
              "              (dense): Linear(in_features=768, out_features=768, bias=True)\n",
              "              (LayerNorm): LayerNorm((768,), eps=1e-12, elementwise_affine=True)\n",
              "              (dropout): Dropout(p=0.1, inplace=False)\n",
              "            )\n",
              "          )\n",
              "          (intermediate): BertIntermediate(\n",
              "            (dense): Linear(in_features=768, out_features=3072, bias=True)\n",
              "          )\n",
              "          (output): BertOutput(\n",
              "            (dense): Linear(in_features=3072, out_features=768, bias=True)\n",
              "            (LayerNorm): LayerNorm((768,), eps=1e-12, elementwise_affine=True)\n",
              "            (dropout): Dropout(p=0.1, inplace=False)\n",
              "          )\n",
              "        )\n",
              "        (7): BertLayer(\n",
              "          (attention): BertAttention(\n",
              "            (self): BertSelfAttention(\n",
              "              (query): Linear(in_features=768, out_features=768, bias=True)\n",
              "              (key): Linear(in_features=768, out_features=768, bias=True)\n",
              "              (value): Linear(in_features=768, out_features=768, bias=True)\n",
              "              (dropout): Dropout(p=0.1, inplace=False)\n",
              "            )\n",
              "            (output): BertSelfOutput(\n",
              "              (dense): Linear(in_features=768, out_features=768, bias=True)\n",
              "              (LayerNorm): LayerNorm((768,), eps=1e-12, elementwise_affine=True)\n",
              "              (dropout): Dropout(p=0.1, inplace=False)\n",
              "            )\n",
              "          )\n",
              "          (intermediate): BertIntermediate(\n",
              "            (dense): Linear(in_features=768, out_features=3072, bias=True)\n",
              "          )\n",
              "          (output): BertOutput(\n",
              "            (dense): Linear(in_features=3072, out_features=768, bias=True)\n",
              "            (LayerNorm): LayerNorm((768,), eps=1e-12, elementwise_affine=True)\n",
              "            (dropout): Dropout(p=0.1, inplace=False)\n",
              "          )\n",
              "        )\n",
              "        (8): BertLayer(\n",
              "          (attention): BertAttention(\n",
              "            (self): BertSelfAttention(\n",
              "              (query): Linear(in_features=768, out_features=768, bias=True)\n",
              "              (key): Linear(in_features=768, out_features=768, bias=True)\n",
              "              (value): Linear(in_features=768, out_features=768, bias=True)\n",
              "              (dropout): Dropout(p=0.1, inplace=False)\n",
              "            )\n",
              "            (output): BertSelfOutput(\n",
              "              (dense): Linear(in_features=768, out_features=768, bias=True)\n",
              "              (LayerNorm): LayerNorm((768,), eps=1e-12, elementwise_affine=True)\n",
              "              (dropout): Dropout(p=0.1, inplace=False)\n",
              "            )\n",
              "          )\n",
              "          (intermediate): BertIntermediate(\n",
              "            (dense): Linear(in_features=768, out_features=3072, bias=True)\n",
              "          )\n",
              "          (output): BertOutput(\n",
              "            (dense): Linear(in_features=3072, out_features=768, bias=True)\n",
              "            (LayerNorm): LayerNorm((768,), eps=1e-12, elementwise_affine=True)\n",
              "            (dropout): Dropout(p=0.1, inplace=False)\n",
              "          )\n",
              "        )\n",
              "        (9): BertLayer(\n",
              "          (attention): BertAttention(\n",
              "            (self): BertSelfAttention(\n",
              "              (query): Linear(in_features=768, out_features=768, bias=True)\n",
              "              (key): Linear(in_features=768, out_features=768, bias=True)\n",
              "              (value): Linear(in_features=768, out_features=768, bias=True)\n",
              "              (dropout): Dropout(p=0.1, inplace=False)\n",
              "            )\n",
              "            (output): BertSelfOutput(\n",
              "              (dense): Linear(in_features=768, out_features=768, bias=True)\n",
              "              (LayerNorm): LayerNorm((768,), eps=1e-12, elementwise_affine=True)\n",
              "              (dropout): Dropout(p=0.1, inplace=False)\n",
              "            )\n",
              "          )\n",
              "          (intermediate): BertIntermediate(\n",
              "            (dense): Linear(in_features=768, out_features=3072, bias=True)\n",
              "          )\n",
              "          (output): BertOutput(\n",
              "            (dense): Linear(in_features=3072, out_features=768, bias=True)\n",
              "            (LayerNorm): LayerNorm((768,), eps=1e-12, elementwise_affine=True)\n",
              "            (dropout): Dropout(p=0.1, inplace=False)\n",
              "          )\n",
              "        )\n",
              "        (10): BertLayer(\n",
              "          (attention): BertAttention(\n",
              "            (self): BertSelfAttention(\n",
              "              (query): Linear(in_features=768, out_features=768, bias=True)\n",
              "              (key): Linear(in_features=768, out_features=768, bias=True)\n",
              "              (value): Linear(in_features=768, out_features=768, bias=True)\n",
              "              (dropout): Dropout(p=0.1, inplace=False)\n",
              "            )\n",
              "            (output): BertSelfOutput(\n",
              "              (dense): Linear(in_features=768, out_features=768, bias=True)\n",
              "              (LayerNorm): LayerNorm((768,), eps=1e-12, elementwise_affine=True)\n",
              "              (dropout): Dropout(p=0.1, inplace=False)\n",
              "            )\n",
              "          )\n",
              "          (intermediate): BertIntermediate(\n",
              "            (dense): Linear(in_features=768, out_features=3072, bias=True)\n",
              "          )\n",
              "          (output): BertOutput(\n",
              "            (dense): Linear(in_features=3072, out_features=768, bias=True)\n",
              "            (LayerNorm): LayerNorm((768,), eps=1e-12, elementwise_affine=True)\n",
              "            (dropout): Dropout(p=0.1, inplace=False)\n",
              "          )\n",
              "        )\n",
              "        (11): BertLayer(\n",
              "          (attention): BertAttention(\n",
              "            (self): BertSelfAttention(\n",
              "              (query): Linear(in_features=768, out_features=768, bias=True)\n",
              "              (key): Linear(in_features=768, out_features=768, bias=True)\n",
              "              (value): Linear(in_features=768, out_features=768, bias=True)\n",
              "              (dropout): Dropout(p=0.1, inplace=False)\n",
              "            )\n",
              "            (output): BertSelfOutput(\n",
              "              (dense): Linear(in_features=768, out_features=768, bias=True)\n",
              "              (LayerNorm): LayerNorm((768,), eps=1e-12, elementwise_affine=True)\n",
              "              (dropout): Dropout(p=0.1, inplace=False)\n",
              "            )\n",
              "          )\n",
              "          (intermediate): BertIntermediate(\n",
              "            (dense): Linear(in_features=768, out_features=3072, bias=True)\n",
              "          )\n",
              "          (output): BertOutput(\n",
              "            (dense): Linear(in_features=3072, out_features=768, bias=True)\n",
              "            (LayerNorm): LayerNorm((768,), eps=1e-12, elementwise_affine=True)\n",
              "            (dropout): Dropout(p=0.1, inplace=False)\n",
              "          )\n",
              "        )\n",
              "      )\n",
              "    )\n",
              "    (pooler): BertPooler(\n",
              "      (dense): Linear(in_features=768, out_features=768, bias=True)\n",
              "      (activation): Tanh()\n",
              "    )\n",
              "  )\n",
              "  (drop): Dropout(p=0.5, inplace=False)\n",
              "  (out): Linear(in_features=768, out_features=2, bias=True)\n",
              ")>"
            ]
          },
          "metadata": {},
          "execution_count": 49
        }
      ]
    },
    {
      "cell_type": "code",
      "metadata": {
        "id": "DdXHd6MtXsoK"
      },
      "source": [
        "EPOCHS = 10\n",
        "optimizer = AdamW(model.parameters(), lr=2e-5, correct_bias=False)\n",
        "total_steps = len(train_data_loader) * EPOCHS\n",
…
